…
    dict(type='SegmanConsoleSummaryHook', interval=1, priority=78)
]
find_unused_parameters = False
segman_segmentation_root = '/root/autodl-tmp/my_MambaVision-main/my_SegMAN-main-main/my_SegMAN-main-main'
segman_run_ts = 'train_20260428_095310'
work_dir = '/root/autodl-tmp/my_MambaVision-main/my_SegMAN-main-main/my_SegMAN-main-main/data/checkpoints1/train_20260428_095310'
gpu_ids = [0]
auto_resume = False

2026-04-28 09:53:13,623 - mmseg - INFO - Set random seed to 1065214636, deterministic: False
2026-04-28 09:53:13,807 - mmseg - INFO - EncoderDecoder(
  (backbone): SegMANEncoder(
    (patch_embed): Sequential(
      (0): Conv2d(3, 16, kernel_size=(3, 3), stride=(2, 2), padding=(1, 1), bias=False)
      (1): BatchNorm2d(16, eps=1e-05, momentum=0.1, affine=True, track_running_stats=True)
      (2): GELU(approximate='none')
      (3): Conv2d(16, 16, kernel_size=(3, 3), stride=(1, 1), padding=(1, 1), bias=False)
      (4): BatchNorm2d(16, eps=1e-05, momentum=0.1, affine=True, track_running_stats=True)
      (5): GELU(approximate='none')
      (6): Conv2d(16, 32, kernel_size=(3, 3), stride=(2, 2), padding=(1, 1), bias=False)
      (7): BatchNorm2d(32, eps=1e-05, momentum=0.1, affine=True, track_running_stats=True)
      (8): GELU(approximate='none')
      (9): Conv2d(32, 32, kernel_size=(3, 3), stride=(1, 1), padding=(1, 1), bias=False)
      (10): BatchNorm2d(32, eps=1e-05, momentum=0.1, affine=True, track_running_stats=True)
    )
    (layers): ModuleList(
      (0): BasicLayer(
        (rope): RoPE()
        (blocks): ModuleList(
          (0-1): 2 x Block(
            (cpe1): Conv2d(32, 32, kernel_size=(3, 3), stride=(1, 1), padding=(1, 1), groups=32)
            (norm1): LayerNorm2d((32,), eps=1e-06, elementwise_affine=True)
            (token_mixer): Attention(
              (qkv): Conv2d(32, 96, kernel_size=(1, 1), stride=(1, 1))
              (lepe): Conv2d(32, 32, kernel_size=(5, 5), stride=(1, 1), padding=(2, 2), groups=32)
              (proj): Conv2d(32, 32, kernel_size=(1, 1), stride=(1, 1))
              (dwconv): Sequential(
                (0): Conv2d(32, 32, kernel_size=(3, 3), stride=(1, 1), padding=(1, 1), groups=32)
                (1): BatchNorm2d(32, eps=1e-05, momentum=0.1, affine=True, track_running_stats=True)
              )
              (ssm): VSSM()
              (norm): LayerNorm2d((32,), eps=1e-06, elementwise_affine=True)
              (rpb): ParameterList(  (0): Parameter containing: [torch.float32 of size 1x21x21])
            )
            (cpe2): Conv2d(32, 32, kernel_size=(3, 3), stride=(1, 1), padding=(1, 1), groups=32)
            (norm2): LayerNorm2d((32,), eps=1e-06, elementwise_affine=True)
            (mlp): FFN(
              (fc1): Conv2d(32, 128, kernel_size=(1, 1), stride=(1, 1))
              (act_layer): GELU(approximate='none')
              (dwconv): Conv2d(128, 128, kernel_size=(3, 3), stride=(1, 1), padding=(1, 1), groups=128)
              (fc2): Conv2d(128, 32, kernel_size=(1, 1), stride=(1, 1))
              (drop): Identity()
            )
            (drop_path): Identity()
            (layer_scale1): Identity()
            (layer_scale2): Identity()
          )
        )
      )
      (1): Sequential(
        (0): Conv2d(32, 64, kernel_size=(3, 3), stride=(2, 2), padding=(1, 1), bias=False)
        (1): BatchNorm2d(64, eps=1e-05, momentum=0.1, affine=True, track_running_stats=True)
      )
      (2): BasicLayer(
        (rope): RoPE()
        (blocks): ModuleList(
          (0-1): 2 x Block(
            (cpe1): Conv2d(64, 64, kernel_size=(3, 3), stride=(1, 1), padding=(1, 1), groups=64)
            (norm1): LayerNorm2d((64,), eps=1e-06, elementwise_affine=True)
            (token_mixer): Attention(
              (qkv): Conv2d(64, 192, kernel_size=(1, 1), stride=(1, 1))
              (lepe): Conv2d(64, 64, kernel_size=(5, 5), stride=(1, 1), padding=(2, 2), groups=64)
              (proj): Conv2d(64, 64, kernel_size=(1, 1), stride=(1, 1))
              (dwconv): Sequential(
                (0): Conv2d(64, 64, kernel_size=(3, 3), stride=(1, 1), padding=(1, 1), groups=64)
                (1): BatchNorm2d(64, eps=1e-05, momentum=0.1, affine=True, track_running_stats=True)
              )
              (ssm): VSSM()
              (norm): LayerNorm2d((64,), eps=1e-06, elementwise_affine=True)
              (rpb): ParameterList(  (0): Parameter containing: [torch.float32 of size 2x17x17])
            )
            (cpe2): Conv2d(64, 64, kernel_size=(3, 3), stride=(1, 1), padding=(1, 1), groups=64)
            (norm2): LayerNorm2d((64,), eps=1e-06, elementwise_affine=True)
            (mlp): FFN(
              (fc1): Conv2d(64, 256, kernel_size=(1, 1), stride=(1, 1))
              (act_layer): GELU(approximate='none')
              (dwconv): Conv2d(256, 256, kernel_size=(3, 3), stride=(1, 1), padding=(1, 1), groups=256)
              (fc2): Conv2d(256, 64, kernel_size=(1, 1), stride=(1, 1))
              (drop): Identity()
            )
            (drop_path): Identity()
            (layer_scale1): Identity()
            (layer_scale2): Identity()
          )
        )
      )
      (3): Sequential(
        (0): Conv2d(64, 144, kernel_size=(3, 3), stride=(2, 2), padding=(1, 1), bias=False)
        (1): BatchNorm2d(144, eps=1e-05, momentum=0.1, affine=True, track_running_stats=True)
      )
      (4): BasicLayer(
        (rope): RoPE()
        (blocks): ModuleList(
          (0-3): 4 x Block(
            (cpe1): Conv2d(144, 144, kernel_size=(3, 3), stride=(1, 1), padding=(1, 1), groups=144)
            (norm1): LayerNorm2d((144,), eps=1e-06, elementwise_affine=True)
            (token_mixer): Attention(
              (qkv): Conv2d(144, 432, kernel_size=(1, 1), stride=(1, 1))
              (lepe): Conv2d(144, 144, kernel_size=(5, 5), stride=(1, 1), padding=(2, 2), groups=144)
              (proj): Conv2d(144, 144, kernel_size=(1, 1), stride=(1, 1))
              (dwconv): Sequential(
                (0): Conv2d(144, 144, kernel_size=(3, 3), stride=(1, 1), padding=(1, 1), groups=144)
                (1): BatchNorm2d(144, eps=1e-05, momentum=0.1, affine=True, track_running_stats=True)
              )
              (ssm): VSSM()
              (norm): LayerNorm2d((144,), eps=1e-06, elementwise_affine=True)
              (rpb): ParameterList(  (0): Parameter containing: [torch.float32 of size 4x17x17])
            )
            (cpe2): Conv2d(144, 144, kernel_size=(3, 3), stride=(1, 1), padding=(1, 1), groups=144)
            (norm2): LayerNorm2d((144,), eps=1e-06, elementwise_affine=True)
            (mlp): FFN(
              (fc1): Conv2d(144, 432, kernel_size=(1, 1), stride=(1, 1))
              (act_layer): GELU(approximate='none')
              (dwconv): Conv2d(432, 432, kernel_size=(3, 3), stride=(1, 1), padding=(1, 1), groups=432)
              (fc2): Conv2d(432, 144, kernel_size=(1, 1), stride=(1, 1))
              (drop): Identity()
            )
            (drop_path): Identity()
            (layer_scale1): Identity()
            (layer_scale2): Identity()
          )
        )
      )
      (5): Sequential(
        (0): Conv2d(144, 192, kernel_size=(3, 3), stride=(2, 2), padding=(1, 1), bias=False)
        (1): BatchNorm2d(192, eps=1e-05, momentum=0.1, affine=True, track_running_stats=True)
      )
      (6): BasicLayer(
        (rope): RoPE()
        (blocks): ModuleList(
          (0-1): 2 x Block(
            (cpe1): Conv2d(192, 192, kernel_size=(3, 3), stride=(1, 1), padding=(1, 1), groups=192)
            (norm1): LayerNorm2d((192,), eps=1e-06, elementwise_affine=True)
            (token_mixer): Attention(
              (qkv): Conv2d(192, 576, kernel_size=(1, 1), stride=(1, 1))
              (lepe): Conv2d(192, 192, kernel_size=(5, 5), stride=(1, 1), padding=(2, 2), groups=192)
              (proj): Conv2d(192, 192, kernel_size=(1, 1), stride=(1, 1))
              (rpb): ParameterList(
                  (0): Parameter containing: [torch.float32 of size 8x13x13]
                  (1): Parameter containing: [torch.float32 of size 8x49x49]
              )
            )
            (cpe2): Conv2d(192, 192, kernel_size=(3, 3), stride=(1, 1), padding=(1, 1), groups=192)
            (norm2): LayerNorm2d((192,), eps=1e-06, elementwise_affine=True)
            (mlp): FFN(
              (fc1): Conv2d(192, 576, kernel_size=(1, 1), stride=(1, 1))
              (act_layer): GELU(approximate='none')
              (dwconv): Conv2d(576, 576, kernel_size=(3, 3), stride=(1, 1), padding=(1, 1), groups=576)
              (fc2): Conv2d(576, 192, kernel_size=(1, 1), stride=(1, 1))
              (drop): Identity()
            )
            (drop_path): Identity()
            (layer_scale1): Identity()
            (layer_scale2): Identity()
          )
        )
      )
      (7): Identity()
    )
  )
  (decode_head): SegMANDecoder(
    input_transform=multiple_select, ignore_index=255, align_corners=False
    (loss_decode): CrossEntropyLoss(avg_non_ignore=True)
    (conv_seg): Conv2d(128, 2, kernel_size=(1, 1), stride=(1, 1))
    (dropout): Dropout2d(p=0.1, inplace=False)
    (conv_downsample_2): ConvModule(
      (conv): Conv2d(128, 256, kernel_size=(3, 3), stride=(2, 2), padding=(1, 1), bias=False)
      (bn): _BatchNormXd(256, eps=1e-05, momentum=0.1, affine=True, track_running_stats=True)
      (activate): ReLU(inplace=True)
    )
    (conv_downsample_4): ConvModule(
      (conv): Conv2d(128, 512, kernel_size=(5, 5), stride=(4, 4), padding=(1, 1), bias=False)
      (bn): _BatchNormXd(512, eps=1e-05, momentum=0.1, affine=True, track_running_stats=True)
      (activate): ReLU(inplace=True)
    )
    (linear_c4): MLP(
      (proj): Linear(in_features=192, out_features=192, bias=True)
    )
    (linear_c3): MLP(
      (proj): Linear(in_features=144, out_features=192, bias=True)
    )
    (linear_c2): MLP(
      (proj): Linear(in_features=64, out_features=192, bias=True)
    )
    (linear_fuse): ConvModule(
      (conv): Conv2d(576, 128, kernel_size=(1, 1), stride=(1, 1), bias=False)
      (bn): _BatchNormXd(128, eps=1e-05, momentum=0.1, affine=True, track_running_stats=True)
      (activate): ReLU(inplace=True)
    )
    (reduce_channels): ModuleList(
      (0): ConvModule(
        (conv): Conv2d(512, 128, kernel_size=(1, 1), stride=(1, 1), bias=False)
        (bn): _BatchNormXd(128, eps=1e-05, momentum=0.1, affine=True, track_running_stats=True)
        (activate): ReLU(inplace=True)
      )
      (1): ConvModule(
        (conv): Conv2d(1024, 128, kernel_size=(1, 1), stride=(1, 1), bias=False)
        (bn): _BatchNormXd(128, eps=1e-05, momentum=0.1, affine=True, track_running_stats=True)
        (activate): ReLU(inplace=True)
      )
      (2): ConvModule(
        (conv): Conv2d(2048, 128, kernel_size=(1, 1), stride=(1, 1), bias=False)
        (bn): _BatchNormXd(128, eps=1e-05, momentum=0.1, affine=True, track_running_stats=True)
        (activate): ReLU(inplace=True)
      )
    )
    (vssm): VSSMBlock(
      (norm1): LayerNorm2d((384,), eps=1e-06, elementwise_affine=True)
      (cpe1): Conv2d(384, 384, kernel_size=(3, 3), stride=(1, 1), padding=(1, 1), groups=384)
      (token_mixer): VSSM()
      (norm2): LayerNorm2d((384,), eps=1e-06, elementwise_affine=True)
      (cpe2): Conv2d(384, 384, kernel_size=(3, 3), stride=(1, 1), padding=(1, 1), groups=384)
      (mlp): FFN(
        (fc1): Conv2d(384, 1536, kernel_size=(1, 1), stride=(1, 1))
        (act_layer): GELU(approximate='none')
        (dwconv): Conv2d(1536, 1536, kernel_size=(3, 3), stride=(1, 1), padding=(1, 1), groups=1536)
        (fc2): Conv2d(1536, 384, kernel_size=(1, 1), stride=(1, 1))
        (drop): Identity()
      )
      (drop_path): Identity()
      (layer_scale1): Identity()
      (layer_scale2): Identity()
    )
    (short_path): ConvModule(
      (conv): Conv2d(128, 128, kernel_size=(1, 1), stride=(1, 1), bias=False)
      (bn): _BatchNormXd(128, eps=1e-05, momentum=0.1, affine=True, track_running_stats=True)
      (activate): ReLU(inplace=True)
    )
    (image_pool): Sequential(
      (0): AdaptiveAvgPool2d(output_size=1)
      (1): ConvModule(
        (conv): Conv2d(128, 128, kernel_size=(1, 1), stride=(1, 1), bias=False)
        (bn): _BatchNormXd(128, eps=1e-05, momentum=0.1, affine=True, track_running_stats=True)
        (activate): ReLU(inplace=True)
      )
    )
    (proj_out): ConvModule(
      (conv): Conv2d(384, 192, kernel_size=(1, 1), stride=(1, 1), bias=False)
      (bn): _BatchNormXd(192, eps=1e-05, momentum=0.1, affine=True, track_running_stats=True)
      (activate): ReLU(inplace=True)
    )
    (cat): ConvModule(
      (conv): Conv2d(1216, 128, kernel_size=(1, 1), stride=(1, 1), bias=False)
      (bn): _BatchNormXd(128, eps=1e-05, momentum=0.1, affine=True, track_running_stats=True)
      (activate): ReLU(inplace=True)
    )
  )
  init_cfg={'type': 'Normal', 'std': 0.01, 'override': {'name': 'conv_seg'}}
)
2026-04-28 09:53:13,816 - mmseg - INFO - Loaded 160 images
2026-04-28 09:53:15,617 - mmseg - INFO - Loaded 20 images
2026-04-28 09:53:15,618 - mmseg - INFO - load checkpoint from local path: pretrained/segman_t_ade.pth
…
